computer_vision_model_2.pth (torch, 35096 bytes, 10 tensors)

conv_block1.0.weight f4 [10, 1, 3, 3]
0.507059 0.36053842 -0.58073395 -0.36681965 0.72124654 -0.047906503 -0.55568844 0.13170354
0.40588725 -0.7289452 0.58377427 0.006846649 0.31590122 0.37766412 -0.05237643 -0.19590396
0.18873884 -0.021081746 -0.66433674 -0.34397087 0.14162947 -1.2858074 -1.0995848 -0.044832196
-1.2679181 -1.1650832 -0.5095639 -1.2409713 -1.9932277 -0.94508624 0.48850366 -1.0472504
0.46518666 0.35407296 -0.36270696 0.47119644 -0.43574345 0.39679763 -0.1304097 -0.8608987
0.4153855 -0.034332637 -0.51109016 0.40990815 0.39627904 -0.12266515 0.20360066 0.07630659
0.1941655 -0.19820935 -0.33439258 -0.11185589 -0.25006285 0.26366913 0.2655708 -0.094113566
-0.07916767 0.40866756 0.18372071 -0.64675474 -0.23974057 -0.9499177 -0.7736168 -0.06301827
-0.2812415 -0.267746 0.46740615 -0.2456299 -0.9902579 -0.40767494 0.70755434 0.45703375
0.8335802 -0.7139963 -0.57482743 -0.29138955 -0.73941797 -0.02991526 0.48159307 0.64670426
-0.26839718 -0.22759323 0.17301823 -0.13589887 0.19366546 -0.08637619 0.18332069 -0.25945756
-0.16849078 0.09698539
00000000: 9ece 013f 7e98 b83e fbaa 14bf c9cf bbbe
00000010: 9da3 383f 9c39 44bd 9941 0ebf 4bdd 063e
00000020: 74d0 cf3e 279c 3abf 3b72 153f db59 e03b
00000030: cebd a13e 315d c13e ab88 56bd 0c9b 48be
00000040: c144 413e a0b3 acbc f911 2abf f31c b0be
00000050: 5107 113e 5695 a4bf 32bf 8cbf f7a1 37bd
00000060: 244b a2bf 7221 95bf c872 02bf 26d8 9ebf
00000070: 1622 ffbf 2cf1 71bf 271d fa3e 4d0c 86bf
00000080: f22c ee3e 0d49 b53e bab4 b9be a940 f13e
00000090: c419 dfbe 0f29 cb3e 1f8a 05be db63 5cbf
000000a0: 69ad d43e 61a0 0cbd ced6 02bf 7bdf d13e
000000b0: 16e5 ca3e de37 fbbd b17c 503e a146 9c3d
000000c0: 52d3 463e 64f7 4abe 8135 abbe b314 e5bd
000000d0: 3d08 80be a4ff 863e e5f8 873e 9dbe c0bd
000000e0: a922 a2bd e03c d13e 4821 3c3e b891 25bf
000000f0: 8d7e 75be ce2d 73bf c00b 46bf b90f 81bd
00000100: e3fe 8fbe 0116 89be dc4f ef3e 6886 7bbe
00000110: 8b81 7dbf c5ba d0be 4822 353f 5400 ea3e
00000120: 8365 553f 76c8 36bf e427 13bf 0331 95be
00000130: 7f4a 3dbf d910 f5bc 5e93 f63e 698e 253f
00000140: 5b6b 89be 330e 69be b12b 313e 1329 0bbe
00000150: 3d50 463e 00e6 b0bd 6bb8 3b3e 9fd7 84be
00000160: d988 2cbe 47a0 c63d

conv_block1.0.bias f4 [10]
-0.040927902 -0.12804511 0.36589718 0.28676614 -0.2631446 -0.1993126 0.33607662 -0.07662041
-0.40039733 -0.33131433
00000000: 04a4 27bd 421e 03be e056 bb3e 03d3 923e
00000010: e4ba 86be 9a18 4cbe 3c12 ac3e 29eb 9cbd
00000020: e100 cdbe 08a2 a9be

conv_block1.2.weight f4 [10, 10, 3, 3]
-0.117836416 0.08884705 0.23527838 -0.23011343 -0.15310372 0.0864328 -0.17025764 -0.44361934
-0.05561504 0.23390119 0.11427144 0.0062541934 -0.09932914 -0.4132939 -0.094137825 -0.05504929
-0.18328547 -0.17020391 -0.2471396 0.22268058 0.31414875 -0.08246972 0.71316195 0.57114905
-0.31779212 0.008671236 0.18135418 -0.32280907 -0.1790037 -0.42036265 0.44109687 0.19304025
-0.35924605 0.20995486 0.39676335 0.30133718 -0.11123603 -0.07918096 0.09290059 -0.08741737
-0.01529457 -0.098802 -0.023016155 -0.18769096 -0.16308221 0.02500791 0.05413516 0.08082293
0.099529736 -0.08464737 0.038729478 -0.044197347 -0.01740027 -0.07236526 0.48328364 0.15971743
-0.28751692 0.35120395 0.033361714 -0.26304835 -0.2635122 0.0049273283 -0.16377442 -0.07901376
0.05189416 0.09036792 -0.14735672 -0.072479166 -0.039143927 -0.09369351 -0.15681738 -0.109607875
-0.08900586 -0.05190881 0.089288406 -0.29387987 -0.12399932 0.12754162 0.09981319 -0.1850726
-0.29184788 0.0544201 0.019045271 -0.037382282 0.05499439 0.055391915 0.03940165 -0.018523067
-0.02791022 0.011257738 0.0068321093 -0.0074283173 0.06884512 0.13927543 -0.020232558 -0.011236841
0.08856936 0.039977167 -0.067813754 0.009090484 -0.10868778 -0.056653704 0.104816444 0.06861355
0.023369167 -0.121274516 -0.10964228 -0.15420511 -0.04196585 0.016579993 0.044072773 0.044655595
-0.10886875 -0.09188477 -0.02126728 0.09144477 -0.013032304 -0.021678349 0.038076073 -0.09581196
-0.108884834 0.077864535 -0.11199287 -0.04023474 -0.14239155 0.053941753 0.062143046 0.023516333
-0.09323156 -0.12094654 -0.11515835 0.06353709 0.032243524 0.079916775 0.029454077 0.027065895
-0.00061531767 -0.08030117 -0.090246685 -0.0983483 0.04458161 -0.05074594 -0.02190069 -0.061075836
-0.04886734 -0.07885584 -0.076256685 0.050704606 -0.014569047 0.12580597 0.0037309565 -0.06704398
-0.047480863 -0.03460024 -0.044867434 -0.10893029 0.07127496 -0.09359064 0.036107026 0.02481095
0.13573544 -0.07956335 0.13632663 -0.039958537 0.02434066 0.108724564 -0.021468593 -0.03470457
-0.04850408 -0.099316254 0.100517645 -0.104583606 0.06543156 0.07889986 0.099688075 -0.024887957
-0.086643994 0.023691863 0.05821891 -0.104910195 -0.04171961 -0.07281375 -0.03553615 -0.06051786
-0.04734994 -0.049619198 -0.10497765 0.04532865 0.03904729 -0.018099882 -0.015996931 -0.04673241
-0.11666787 -0.10766807 0.03068546 -0.008346394 -0.06387605 -0.011333819 -0.04602236 -0.06311085
-0.01847902 -0.039739005 -0.08461889 -0.04205483 -0.122895114 0.08214417 -0.035102453 -0.00482411
-0.07274719 -0.036460835 0.11274034 0.10211871 -0.0736476 0.11126066 0.19264518 0.058746774
0.06873013 0.10331747 -0.020761753 0.027752016 -0.06511043 -0.017101789 0.095544875 0.060747888
-0.087039545 -0.08445695 -0.07189215 -0.10403964 -0.0816295 -0.025589759 0.07123138 0.018003896
-0.080747515 -0.084347144 0.023842493 -0.11338991 -0.041183624 0.010410246 -0.081215546 -0.022026481
-0.029416747 -0.016664077 -0.03618854 -0.08954366 -0.086545184 -0.055922862 0.12825687 -0.0051623466
-0.06325634 0.09105184 0.033131998 0.051864 0.060951848 0.052491635 -0.10545061 0.11999121
00000000: 3854 f1bd 71f5 b53d d1ec 703e dba2 6bbe
00000010: 39c7 1cbe ae03 b13d 0558 2ebe 1322 e3be
00000020: 99cc 63bd cb83 6f3e 2507 ea3d faef cc3b
00000030: 136d cbbd 429b d3be 55cb c0bd 5d7b 61bd
00000040: 30af 3bbe ef49 2ebe 2a12 7dbe 6106 643e
00000050: 1bd8 a03e e2e5 a8bd c891 363f d336 123f
00000060: a6b5 a2be cd11 0e3c e9b4 393e 3b47 a5be
00000070: bf4c 37be c639 d7be 73d7 e13e 58ac 453e
00000080: 19ef b7be 68fe 563e 9124 cb3e de48 9a3e
00000090: b7cf e3bd a129 a2bd aa42 be3d e107 b3bd
000000a0: 1396 7abc b458 cabd 608c bcbc 0f32 40be
000000b0: 06ff 26be 63dd cc3c d4bc 5d3d 7e86 a53d
000000c0: 3fd6 cb3d 9a5b adbd cda2 1e3d 4708 35bd
000000d0: 038b 8ebc 3d34 94bd f470 f73e f78c 233e
000000e0: 6b35 93be 01d1 b33e 4ba6 083d 46ae 86be
000000f0: 12eb 86be 6d75 a13b 7bb4 27be f7d1 a1bd
00000100: f98e 543d d112 b93d aee4 16be f56f 94bd
00000110: 6255 20bd 62e2 bfbd bc94 20be 187a e0bd
00000120: b448 b6bd 559e 54bd d7dc b63d 6c77 96be
00000130: 5bf3 fdbd 459a 023e dc6a cc3d ac83 3dbe
00000140: 166d 95be 9ce7 5e3d d404 9c3c 2a1e 19bd
00000150: cc41 613d a2e2 623d a063 213d b0bd 97bc
00000160: f9a3 e4bc 6072 383c e3df df3b 3e69 f3bb
00000170: acfe 8c3d 389e 0e3e c0be a5bc ba1a 38bc
00000180: da63 b53d 19bf 233d f0e1 8abd 41f0 143c
00000190: b397 debd b70d 68bd 01aa d63d 4385 8c3d
000001a0: b270 bf3c c65e f8bd 228c e0bd f2e7 1dbe
000001b0: 62e4 2bbd c4d2 873c a785 343d c9e8 363d
000001c0: 94f6 debd 152e bcbd b838 aebc 6547 bb3d
000001d0: 7285 55bc cb96 b1bc a8f5 1b3d 1039 c4bd
000001e0: 03ff debd 7177 9f3d 855c e5bd 2fcd 24bd
000001f0: 17cf 11be 07f2 5c3d b589 7e3d 53a5 c03c
00000200: 30f0 bebd d2b2 f7bd 24d8 ebbd bc1f 823d
00000210: c911 043d 68ab a33d ad49 f13c 4cb9 dd3c
00000220: 454d 21ba f174 a4bd 41d3 b8bd d56a c9bd
00000230: 359b 363d fada 4fbd 1369 b3bc a82a 7abd
00000240: 1f29 48bd 2c7f a1bd 772c 9cbd a2af 4f3d
00000250: 03b3 6ebc 48d3 003e 1083 743b 5b4e 89bd
00000260: 4b7b 42bd fbb8 0dbd eac6 37bd d816 dfbd
00000270: 9bf8 913d 73ac bfbd f6e4 133d 5540 cb3c
00000280: 3bfe 0a3e 1cf2 a2bd 3599 0b3e 90ab 23bd
00000290: 1066 c73c fcaa de3d e7de afbc 6126 0ebd
000002a0: 37ac 46bd 5266 cbbd 32dc cd3d ee2f d6bd
000002b0: fb00 863d 4096 a13d 4329 cc3d d4e1 cbbc
000002c0: 6872 b1bd 7015 c23c f476 6e3d 28db d6bd
000002d0: 2fe2 2abd 601f 95bd 5b8e 11bd 93e1 77bd
000002e0: 03f2 41bd 803d 4bbd 86fe d6bd 89aa 393d
000002f0: 0df0 1f3d 3446 94bc ff0b 83bc 7c6a 3fbd
00000300: 90ef eebd 1481 dcbd 1360 fb3c 50bf 08bc
00000310: 72d1 82bd 7bb1 39bc f181 3cbd 4340 81bd
00000320: 5061 97bc 5ec5 22bd ab4c adbd af41 2cbd
00000330: 6fb0 fbbd 343b a83d 97c7 0fbd 9113 9ebb
00000340: 7bfc 94bd f557 15bd 68e4 e63d 9d23 d13d
00000350: 8ed4 96bd a1dc e33d c744 453e 75a0 703d
00000360: 62c2 8c3d 1c98 d33d 8d14 aabc 3258 e33c
00000370: 9e58 85bd 0d19 8cbc 08ad c33d c7d2 783d
00000380: ca41 b2bd c4f7 acbd 313c 93bd bc12 d5bd
00000390: 5e2d a7bd 9da1 d1bc c2e1 913d e87c 933c
000003a0: f45e a5bd 32be acbd 5551 c33c f838 e8bd
000003b0: 29b0 28bd bd8f 2a3c 5654 a6bd e170 b4bc
000003c0: 64fb f0bc 1a83 88bc 6f3a 14bd ab62 b7bd
000003d0: 9a3e b1bd 5f0f 65bd c555 033e e728 a9bb
000003e0: 8a8c 81bd 6379 ba3d 6bb5 073d 586f 543d
000003f0: a5a8 793d 7801 573d 7df6 d7bd f4bd f53d

conv_block1.2.bias f4 [10]
-0.050548915 0.062882885 -0.074973874 0.5715251 -0.25116816 0.049325716 0.01743648 -0.35869694
0.21493515 -0.08729135
00000000: 610c 4fbd bec8 803d e78b 99bd 784f 123f
00000010: 1d99 80be c309 4a3d f3d6 8e3c 20a7 b7be
00000020: f617 5c3e cfc5 b2bd

conv_block2.0.weight f4 [10, 10, 3, 3]
0.07381773 -0.39850584 -0.022258522 0.056013636 -0.1726431 0.21942045 0.15982382 -0.036328055
0.14231892 0.063345715 -0.08681811 -0.05176713 -0.101318404 -0.02350717 0.06727223 -0.0054322295
0.099253766 -0.051338825 0.015443729 -0.0624369 0.04233475 -0.016883511 0.009465976 -0.08658321
0.018725611 0.10844083 0.051954985 0.0560597 0.27167568 0.1261492 0.16002882 0.30533773
-0.04741716 -0.22296295 -0.17621833 -0.0366728 -0.07556358 0.12892663 -0.055041615 -0.086026326
0.03690856 -0.13445957 -0.14634852 -0.18284473 -0.020312248 0.31336418 0.10237861 -0.1829455
0.05455353 -0.18435252 -0.32256198 0.0106843645 0.14127408 -0.23012029 -0.3519982 0.05367376
-0.36186808 -0.104559556 0.36944786 -0.48372707 0.2879955 -0.005426913 -0.33203903 -0.19957002
-0.11806705 -0.11729411 0.26366132 0.01966597 -0.37170354 0.3392913 -0.096788354 -0.22285734
-0.3651671 0.050117206 -0.041308958 0.071687125 0.1554334 -0.12745012 0.055752404 -0.18030293
-0.100319825 0.39942622 -0.38573503 -0.23046009 0.39162475 -0.09969896 -0.34237367 0.18671833
0.2490168 -0.5583781 -0.044469524 -0.45179057 -0.21859924 0.43126553 -0.6073621 -0.049877282
-0.058355436 0.17704135 0.026863528 0.074581705 -0.06856215 -0.1193703 -0.05868395 0.11679933
0.015020073 -0.030288864 -0.05951343 0.10755021 0.10401555 0.0009842054 -0.051976893 -0.12972486
-0.017525662 -0.12914617 0.09452752 -0.099002115 0.037335794 -0.06933726 0.04409099 0.14761585
0.27333173 0.9222588 0.070666656 -0.8046291 -0.358015 -0.05505928 0.028023232 0.3210832
0.06932406 -0.06310782 -0.09179122 -0.03668889 0.2642011 -0.15763457 -0.29494995 -0.105751425
-0.35302043 0.07827331 0.4451457 -0.255195 0.029809805 0.19536665 0.20609815 0.12576865
-0.2558254 0.06415057 0.04687237 -0.6152744 0.4867752 0.40586716 -0.79578 0.03998142
-0.12351288 0.13247778 -0.20742646 -0.2036465 -0.20136783 -0.40921313 -0.08520037 -0.38817322
-0.50793403 -0.031034833 -0.4233708 0.17084278 0.13264672 -0.15943883 0.36442563 0.66914403
-0.54005766 -0.4519424 -0.033559658 0.052387718 0.25448784 -0.112683944 0.5189059 0.06848757
-0.20238419 -0.5845089 0.12799272 0.05540883 -0.063558556 0.20597968 0.18295199 -0.13785195
-0.120124556 -0.18058424 -0.15071586 -0.12295805 -0.17286311 -0.018480917 -0.06555656 -0.027864592
-0.037244383 0.09859228 -0.020700427 -0.0730782 0.034361344 -0.013194726 0.10194219 0.09018282
0.12357861 -0.08968555 0.050239556 0.09268831 -0.0584421 0.097677045 0.079405405 -0.0032122633
0.04379051 -0.096782066 -0.06457638 0.10070034 -0.003879651 -0.10268503 0.09248908 -0.13461027
0.024947233 0.060838602 -0.025552476 -0.10632552 0.03950918 -0.048168283 -0.037193622 0.0019487488
0.016770449 -0.15125209 -0.11682418 0.03516533 -0.023284944 -0.044939533 -0.16627353 -0.055879984
-0.025940523 -0.16074973 0.15635821 -0.017357675 -0.14900866 0.0057725077 -0.12783821 0.111974016
-0.08135237 -0.22702196 -0.010908831 0.039830837 0.05908828 0.031928036 -0.05485889 0.03457565
0.24856749 -0.16229782 -0.04988593 0.14117259 -0.13152073 -0.16013516 0.047362555 0.09590387
00000000: c02d 973d f508 ccbe 8157 b6bc 8e6e 653d
00000010: 5ac9 30be c1af 603e dba8 233e bacc 14bd
00000020: 0dbc 113e 66bb 813d b1cd b1bd c509 54bd
00000030: 0680 cfbd 1c92 c0bc 06c6 893d d800 b2bb
00000040: 8f45 cb3d a948 52bd b207 7d3c d6bd 7fbd
00000050: 3467 2d3d 4a4f 8abc 2e17 1b3c 8a52 b1bd
00000060: 7466 993c 3a16 de3d c0ce 543d db9e 653d
00000070: 1319 8b3e 422d 013e 98de 233e 3a55 9c3e
00000080: 7f38 42bd 6650 64be 9472 34be 3836 16bd
00000090: 14c1 9abd 5805 043e 5173 61bd 922e b0bd
000000a0: 6e2d 173d c5af 09be 63dc 15be a63b 3bbe
000000b0: df65 a6bc 4571 a03e e0ab d13d 1156 3bbe
000000c0: 8673 5f3d e8c6 3cbe d826 a5be 790d 2f3c
000000d0: 27aa 103e a7a4 6bbe 1c39 b4be 04d9 5b3d
000000e0: c646 b9be 5223 d6bd 4528 bd3e 13ab f7be
000000f0: 2574 933e 3fd4 b1bb 0501 aabe 155c 4cbe
00000100: 23cd f1bd e537 f0bd 9efe 863e 871a a13c
00000110: ed4f bebe 97b7 ad3e f938 c6bd b734 64be
00000120: 2ff7 babe b347 4d3d 9533 29bd b3d0 923d
00000130: ef29 1f3e 4982 02be a25c 643d 55a1 38be
00000140: 7b74 cdbd 9881 cc3e 107f c5be bbfd 6bbe
00000150: 0a83 c83e f82e ccbd 9a4b afbe 1733 3f3e
00000160: 43fe 7e3e def1 0ebf ad25 36bd 1851 e7be
00000170: 7bd8 5fbe d6ce dc3e 157c 1bbf 1f4c 4cbd
00000180: 1c06 6fbd 544a 353e e710 dc3c 4bbe 983d
00000190: 506a 8cbd 6a78 f4bd 955e 70bd 7d34 ef3d
000001a0: c116 763c 5a20 f8bc 5bc4 73bd 4943 dc3d
000001b0: 1b06 d53d 7400 813a b9e5 54bd 98d6 04be
000001c0: fa91 8fbc e53e 04be a597 c13d 9fc1 cabd
000001d0: 6bed 183d b200 8ebd c198 343d 9c28 173e
000001e0: 23f2 8b3e 2719 6c3f aeb9 903d 2cfc 4dbf
000001f0: be4d b7be d785 61bd fa90 e53c 0465 a43e
00000200: c6f9 8d3d ac3e 81bd 09fd bbbd 1747 16bd
00000210: 5e45 873e f56a 21be ae03 97be 3494 d8bd
00000220: 18bf b4be c24d a03d 23ea e33e eba8 82be
00000230: b133 f43c 320e 483e 650b 533e 7fc9 003e
00000240: 8cfb 82be 6061 833d 3efd 3f3d a082 1dbf
00000250: 993a f93e d2cd cf3e 3db8 4bbf 8fc3 233d
00000260: 52f4 fcbd 41a8 073e 9a67 54be b588 50be
00000270: 5e33 4ebe 6284 d1be 887d aebd a4be c6be
00000280: f707 02bf c33c febc 0fc4 d8be 69f1 2e3e
00000290: 8bd4 073e ef43 23be ff95 ba3e 064d 2b3f
000002a0: 3841 0abf ff64 e7be da75 09bd 8194 563d
000002b0: 3b4c 823e d7c6 e6bd 04d7 043f 3643 8c3d
000002c0: cd3d 4fbe 60a2 15bf 8610 033e 5ff4 623d
000002d0: fd2a 82bd 56ec 523e c457 3b3e 1029 0dbe
000002e0: dd03 f6bd 13eb 38be 4255 1abe 6ed1 fbbd
000002f0: 0703 31be 4b65 97bc 8542 86bd 4944 e4bc
00000300: 918d 18bd c0ea c93d f193 a9bc 06aa 95bd
00000310: 7bbe 0c3d b12e 58bc 11c7 d03d c5b1 b83d
00000320: c816 fd3d 0fad b7bd fec7 4d3d 5ed3 bd3d
00000330: fc60 6fbd e70a c83d 4d9f a23d d684 52bb
00000340: ae5d 333d ad35 c6bd 9f40 84bd fb3b ce3d
00000350: be41 7ebb 874c d2bd ea6a bd3d 46d7 09be
00000360: 245e cc3c e631 793d 6d53 d1bc 32c1 d9bd
00000370: 61d4 213d 1b4c 45bd 5758 18bd 296d ff3a
00000380: 2e62 893c d4e1 1abe 8441 efbd 8509 103d
00000390: 11c0 bebc 8412 38bd 9c43 2abe 69e2 64bd
000003a0: 3881 d4bc 949b 24be 5e1c 203e af31 8ebc
000003b0: ba95 18be 4e27 bd3b 05e8 02be a252 e53d
000003c0: 129c a6bd 7278 68be f4ba 32bc a925 233d
000003d0: 8d06 723d f9c6 023d b7b3 60bd 329f 0d3d
000003e0: 7a88 7e3e 6631 26be 3055 4cbd 8c8f 103e
000003f0: 5fad 06be 79fa 23be 3dff 413d 4069 c43d

conv_block2.0.bias f4 [10]
-0.09557262 0.4042417 0.004177055 -0.35106975 -0.69868994 -0.018399479 0.56106913 0.9612635
0.7548052 0.009823021
00000000: 94bb c3bd c5f8 ce3e addf 883b 6abf b3be
00000010: 58dd 32bf 81ba 96bc 3aa2 0f3f 5d15 763f
00000020: ea3a 413f bcf0 203c

conv_block2.2.weight f4 [10, 10, 3, 3]
-0.15424845 -0.16146939 -0.11438988 -0.13338143 -0.10014495 0.046855398 -0.10789888 -0.1260458
0.18746534 -0.024382204 -0.11842732 -0.4034049 0.048054304 0.06562667 -0.56978333 0.18786725
0.19684573 -0.6879478 -0.02292623 -0.04460591 -0.0716521 0.0016413926 0.11501342 -0.051065024
-0.08860996 0.1512334 0.04023858 -0.07761737 -0.034366027 -0.25227523 -0.20094655 -0.31429127
0.055729553 -0.1847786 0.2981727 -0.095190994 -0.2952467 -0.23582149 -0.22881131 -0.030422632
-0.22936049 -0.038240116 0.14689678 -0.112145975 -0.37001032 -0.14440347 -0.048499376 -0.08324775
-0.032653145 0.11552542 -0.14715718 0.112997614 -0.14301825 -0.13988626 -0.16924444 0.07470636
-0.47963265 -0.44486126 0.074006766 0.32209605 -0.6899723 0.31926116 0.3092989 0.36767623
0.013845017 -0.17381403 0.008802057 0.23526557 -0.13047305 0.006197575 -0.012695328 -0.12037609
0.11015845 -0.058691267 0.031827025 -0.11860419 -0.62114686 0.07604151 -0.1931409 -0.6018169
-0.3412243 -0.37704027 -0.006791965 -0.19660966 0.006088463 -0.13519043 -0.12845114 0.12395081
0.07594604 -0.051383954 0.13086146 -0.23798639 -0.09605733 -0.13271853 -0.13827457 0.13101105
-0.014819756 -0.0433855 0.35344592 -0.12574093 0.1652748 -0.3887771 0.0038282964 -0.4847043
0.6130337 -0.36450705 -0.80826443 -0.12190127 -0.08129039 0.06089689 0.10310046 -0.012059605
-0.14297174 -0.0075250412 -0.09745072 -0.12420937 -0.058603898 -0.115040615 0.27945217 0.22408392
0.4798236 -0.18388669 -0.37011728 0.3589365 0.14780986 -0.045267377 0.0062721143 0.3223146
0.058913954 0.055847943 0.02411851 -0.07658861 0.21020699 0.053548194 0.11638303 -0.28325343
-0.15878771 0.18134533 -0.12371227 -0.33316383 0.009571571 0.16589917 0.14071864 0.16090809
-0.22785169 -0.27721658 -0.003914286 -0.4146444 0.28501284 -0.0643015 0.02155659 0.103388384
0.055350803 0.23992969 0.0047226353 -0.021019176 0.15562047 -0.47061223 0.021213202 0.22072539
-0.7716693 0.1383331 -0.4395433 -0.42041236 -0.066612214 0.37041703 0.11676077 -0.23756406
-0.0044963844 0.3757881 -0.28627795 -0.12255743 0.31138888 0.035293132 -0.16423893 -0.36281654
0.023754928 -0.12218592 -0.33060884 -0.1811278 0.14810775 0.11835718 -0.25814122 -0.017216109
0.016604835 0.124273024 -0.35030872 0.05420927 0.40160778 -0.65041625 -0.117768005 -0.55507267
-0.53912187 0.58403015 0.10788167 0.17469767 -0.030175967 0.20406501 0.092770666 -0.20810826
0.04778204 -0.03284109 0.21773101 0.14927007 0.016656617 0.08877899 0.05341056 -0.23747039
0.061482225 0.13782002 0.006851612 -0.13123797 -0.24733219 -0.06062301 -0.24828613 -0.19734535
0.21063894 0.34154776 0.08388187 -0.10977596 -0.13008918 -0.15086749 -0.0080971895 -0.051809013
-0.12442468 0.0032390757 0.076574855 0.028617268 0.029654093 0.1342081 -0.04007072 0.09230898
-0.12170473 0.0006812957 -0.29160252 -0.22272728 0.3501187 -0.30223128 0.1494131 -0.051765542
-0.07582568 -0.03967592 -0.2480358 -0.32186714 0.48725644 0.14428757 -0.41059634 0.21595539
-0.0662239 -0.059327822 -0.7184331 -0.07433949 -0.24528617 -0.47673842 0.2569392 0.22691791
00000000: 4ef3 1dbe 3b58 25be 3e45 eabd 2495 08be
00000010: cc18 cdbd 72eb 3f3d 17fa dcbd 2612 01be
00000020: eaf6 3f3e 30bd c7bc 068a f2bd 168b cebe
00000030: 97d4 443d 4767 863d 52dd 11bf 4660 403e
00000040: ed91 493e 591d 30bf cacf bbbc b0b4 36bd
00000050: 56be 92bd ff23 d73a 288c eb3d 8f29 51bd
00000060: 2479 b5bd eedc 1a3e 36d1 243d dbf5 9ebd
00000070: 64c3 0cbd 382a 81be efc4 4dbe c9ea a0be
00000080: ac44 643d 9a36 3dbe 18aa 983e 7ff3 c2bd
00000090: 932a 97be 307b 71be 834d 6abe e238 f9bc
000000a0: 7add 6abe aba1 1cbd 1c6c 163e caac e5bd
000000b0: fe71 bdbe 81de 13be 48a7 46bd cc7d aabd
000000c0: 4ebf 05bd 9798 ec3d 5fb0 16be 4b6b e73d
000000d0: 6073 12be 583e 0fbe 6a4e 2dbe a6ff 983d
000000e0: 6992 f5be dbc4 e3be dc90 973d c6e9 a43e
000000f0: 06a2 30bf 3376 a33e 6d5c 9e3e 0f40 bc3e
00000100: 36d6 623c 4efc 31be 8136 103c 75e9 703e
00000110: ba9a 05be 0715 cb3b 1100 50bc bd87 f6bd
00000120: c19a e13d 4166 70bd 0e5d 023d c1e6 f2bd
00000130: 7b03 1fbf a7bb 9b3d bac6 45be ac10 1abf
00000140: f4b4 aebe 6c0b c1be 228f debb 0b54 49be
00000150: bb81 c73b 5c6f 0abe b288 03be ecd9 fd3d
00000160: 9989 9b3d fb77 52bd 8c00 063e b4b2 73be
00000170: b5b9 c4bd 5ee7 07be d997 0dbe c327 063e
00000180: 90ce 72bc feb4 31bd ddf6 b43e 3bc2 00be
00000190: cc3d 293e cb0d c7be 28e4 7a3b 292b f8be
000001a0: c7ef 1c3f aba0 babe 6bea 4ebf 5fa7 f9bd
000001b0: 937b a6bd 046f 793d 5526 d33d a695 45bc
000001c0: 2f67 12be 9f94 f6bb 3e94 c7bd 7b61 febd
000001d0: a40a 70bd 6a9a ebbd 5b14 8f3e 4176 653e
000001e0: 70ab f53e cb4c 3cbe 0380 bdbe 86c6 b73e
000001f0: 785b 173e 496a 39bd 4f86 cd3b 6b06 a53e
00000200: c24f 713d d0c0 643d 2e94 c53c 7dda 9cbd
00000210: 8040 573e 5a55 5b3d 3a5a ee3d 9806 91be
00000220: 3f99 22be 97b2 393e dc5c fdbd 7394 aabe
00000230: 14d2 1c3c 79e1 293e 8c18 103e 17c5 243e
00000240: f451 69be 55ef 8dbe 6943 80bb 454c d4be
00000250: 34ed 913e 81b0 83bd 7297 b03c 4abd d33d
00000260: 86b7 623d 21b0 753e 56c0 9a3b 6830 acbc
00000270: f95a 1f3e 16f4 f0be 4fc7 ad3c d605 623e
00000280: 1f8c 45bf 31a7 0d3e d20b e1be 4a40 d7be
00000290: fc6b 88bd 4da7 bd3e 4520 ef3d fe43 73be
000002a0: 6856 93bb 4c67 c03e 0693 92be 64ff fabd
000002b0: 5d6e 9f3e 888f 103d 402e 28be 17c3 b9be
000002c0: b299 c23c 9d3c fabd 9045 a9be 9179 39be
000002d0: 8fa9 173e 4065 f23d 162b 84be cc08 8dbc
000002e0: dd06 883c db82 fe3d aa5b b3be 8a0a 5e3d
000002f0: 899f cd3e ae81 26bf 5a30 f1bd 3e19 0ebf
00000300: e403 0abf 0083 153f 11f1 dc3d f2e3 323e
00000310: 9733 f7bc 6bf6 503e 8cfe bd3d 551a 55be
00000320: 1ab7 433d 6184 06bd e1f4 5e3e 41da 183e
00000330: 7573 883c c2d1 b53d 08c5 5a3d 702b 73be
00000340: c9d4 7b3d b120 0d3e 7d83 e03b 3f63 06be
00000350: a644 7dbe d54f 78bd b83e 7ebe e614 4abe
00000360: bcb1 573e 59df ae3e 42ca ab3d 38d2 e0bd
00000370: 1936 05be 027d 1abe 13aa 04bc b035 54bd
00000380: 5ed2 febd ac46 543b 47d3 9c3d c36e ea3c
00000390: 24ed f23c d96d 093e 3221 24bd 7e0c bd3d
000003a0: 5440 f9bd fb98 323a ed4c 95be 9f12 64be
000003b0: c242 b33e 0fbe 9abe bfff 183e 1b08 54bd
000003c0: 7e4a 9bbd 3883 22bd 19fd 7dbe c5cb a4be
000003d0: ad79 f93e 1fc0 133e af39 d2be 6923 5d3e
000003e0: 65a0 87bd bb01 73bd 3beb 37bf 4d3f 98bd
000003f0: 4c2c 7bbe 0f17 f4be 898d 833e 2b5d 683e

conv_block2.2.bias f4 [10]
0.38919005 -0.1272874 0.23751527 -0.13566512 -0.2888961 0.07375115 0.027525064 -0.035724133
-0.34860864 -0.008782579
00000000: eb43 c73e a157 02be 3437 733e cceb 0abe
00000010: 31ea 93be d80a 973d 3e7c e13c 7853 12bd
00000020: d57c b2be cee4 0fbc

classifier.1.weight f4 [10, 490]
-0.03692131 -0.15110573 0.22458395 -0.26015192 0.29260033 0.039761826 0.08990223 0.07444335
0.2548714 0.15594606 -0.3961669 0.20498338 0.12034229 0.1514777 -0.031860083 0.18639122
0.15484264 -0.27280927 -0.105746225 -0.06370478 -0.040669557 -0.09449732 0.16632795 -0.037614524
-0.13199297 0.0067868107 -0.089597195 -0.11872792 -0.22882812 -0.11177727 -0.007241214 -0.0020765907
0.14887543 0.01665204 0.02542617 0.07413662 -0.16730864 -0.012914744 -0.2400355 0.009833201
0.19076832 -0.19071512 0.10978666 -0.3301817 -0.31560642 0.01573082 -0.01306519 0.381712
0.1232274 -0.009846302 0.26417625 0.03096668 -0.39617878 -0.20257857 0.009624264 0.036189895
-0.038537994 -0.063436374 -0.048070394 -0.12564415 0.09227281 0.010467465 -0.016947165 0.24713835
0.15341058 0.0013264798 -0.066714734 -0.011959476 0.21994331 -0.23795798 0.02562638 -0.09943837
0.002416281 -0.19113071 0.17046687 0.16139352 0.0501456 -0.06364763 -0.04901305 -0.0034911179
0.010147559 0.018663755 0.13864535 -0.076096795 -0.1970255 0.05087845 0.10674321 0.114477195
-0.18167531 0.080695584 -0.17515756 -0.42174658 0.15572244 0.23796031 -0.12264162 -0.15001288
-0.07462286 0.025923632 0.13742955 -2.5681527e-05 0.039528057 -0.067228995 0.22327332 0.12134713
0.065538645 0.31437793 0.06747917 -0.029338049 0.22385375 -0.086862914 -0.049248427 -0.059522342
0.20482114 0.1748333 0.2943883 -0.04776136 0.050457217 -0.014398932 -0.3301586 -0.072483785
-0.14260177 0.19028029 -0.2570706 -0.16754131 0.08148555 -0.23999153 -0.38700637 -0.021725385
0.08507457 -0.027778855 0.047942825 0.10108433 -0.07203564 -0.16365266 -0.019947097 -0.053583786
-0.01350006 -0.053978726 -0.008412127 0.20338206 0.042821 0.0032135092 0.103981815 -0.124344066
0.06607369 -0.07475806 -0.20310044 0.47190994 -0.09274672 -0.18949807 -0.036619585 0.17381003
0.18024436 0.010061603 -0.2679138 -0.02535781 -0.07124938 -0.088204086 -0.034432422 -0.026282754
-0.10707654 -0.022220375 -0.07675068 -0.10659913 0.008409622 0.14612707 0.17323388 0.019780517
0.12874246 0.088551976 -0.10151151 -0.11186986 0.086741894 0.35773745 0.28889957 -0.034110047
0.14893246 -0.19275934 -0.16127485 -0.20227931 -0.06636065 0.03493235 0.02930116 0.35292614
-0.042276114 -0.0030491487 -0.056731675 -0.06713441 0.093719885 -0.046235755 -0.045056455 -0.09595037
-0.16668689 -0.1556269 -0.35516632 -0.12403826 -0.043148477 -0.018412666 0.17817502 0.044219136
0.27817327 0.05983925 0.00031359502 0.14853808 -0.31927988 0.24040855 0.34432763 0.06817687
-0.059069607 -0.06373789 0.17177464 0.24189705 0.11924479 0.17398386 0.14676152 0.38139886
0.058904696 0.18350984 -0.10288866 -0.15995929 -0.19588932 -0.133216 0.2891048 -0.0150689
0.19870895 -0.17109382 -0.14102317 0.10008382 -0.26724175 -0.10178356 -0.0059573567 0.017996209
-0.15200621 0.0034566794 -0.05856519 -0.019478697 0.20371857 0.09600138 -0.03439679 -0.058486942
0.154121 0.07317609 -0.25245592 -0.115737274 0.04722285 -0.046099145 0.08385928 -0.0292604
0.13939139 0.09229151 0.41394985 0.22764117 0.056635913 -0.2583793 -0.0056781364 0.029130278
00000000: cd3a 17bd 76bb 1abe 56f9 653e a232 85be
00000010: b6cf 953e 4cdd 223d a91e b83d c175 983d
00000020: 817e 823e 53b0 1f3e 63d6 cabe 2ae7 513e
00000030: 0576 f63d f81c 1b3e b87f 02bd 57dd 3e3e
00000040: 128f 1e3e a8ad 8bbe 7a91 d8bd a777 82bd
00000050: 1f95 26bd d087 c1bd e051 2a3e b011 1abd
00000060: 2a29 07be e563 de3b bc7e b7bd a027 f3bd
00000070: eb51 6abe 7beb e4bd b547 edbb 6917 08bb
00000080: cd72 183e dc69 883c 8b4a d03c f1d4 973d
00000090: f552 2bbe 5d98 53bc decb 75be 6f1b 213c
000000a0: c558 433e d34a 43be d4d7 e03d 930d a9be
000000b0: 2a97 a1be ecdd 803c 610f 56bc c16f c33e
000000c0: a65e fc3d 6252 21bc 1c42 873e d6ad fd3c
000000d0: f2d7 cabe c270 4fbe 17af 1d3c db3b 143d
000000e0: 04da 1dbd eeea 81bd 76e5 44bd dca8 00be
000000f0: 87f9 bc3d bb7f 2b3c c8d4 8abc d611 7d3e
00000100: aa17 1d3e 47dd ad3a bca1 88bd aef1 43bc
00000110: d238 613e 42ab 73be 6aee d13c 58a6 cbbd
00000120: 785a 1e3b c5b7 43be de8e 2e3e 5844 253e
00000130: 7965 4d3d b059 82bd e8c1 48bd 3dcb 64bb
00000140: f341 263c bbe4 983c 0cf9 0d3e a3d8 9bbd
00000150: 0dc1 49be ec65 503d 2f9c da3d 0573 ea3d
00000160: 1809 3abe ba43 a53d 815c 33be 2bef d7be
00000170: b475 1f3e deab 733e 882b fbbd fa9c 19be
00000180: dfd3 98bd cc5d d43c 55ba 0c3e a96e d7b7
00000190: 2ce8 213d 5baf 89bd c3a1 643e d884 f83d
000001a0: 2039 863d 25f6 a03e 8532 8a3d 5956 f0bc
000001b0: eb39 653e 2fe5 b1bd b8b8 49bd b3cd 73bd
000001c0: a2bc 513e 8007 333e 10ba 963e 6aa1 43bd
000001d0: 3aac 4e3d 80e9 6bbc 8c0a a9be 6172 94bd
000001e0: 3306 12be d6d8 423e c29e 83be f38f 2bbe
000001f0: e5e1 a63d 57c0 75be b325 c6be 6ff9 b1bc
00000200: 933b ae3d 7b90 e3bc b25f 443d 4d05 cf3d
00000210: 6c87 93bd 9094 27be 1868 a3bc ac7a 5bbd
00000220: 5b2f 5dbc cc18 5dbd 05d3 09bc 6343 503e
00000230: 1365 2f3d bd99 523b 6bf4 d43d 1aa8 febd
00000240: a551 873d c11a 99bd 90f9 4fbe 2e9e f13e
00000250: fef1 bdbd c80b 42be 6bfe 15bd 42fb 313e
00000260: fa91 383e 6cd9 243c ff2b 89be 2fbb cfbc
00000270: 32eb 91bd 58a4 b4bd 0309 0dbd ee4e d7bc
00000280: f24a dbbd 8107 b6bc 762f 9dbd a550 dabd
00000290: 83c8 093c 56a2 153e 3964 313e c00a a23c
000002a0: 10d5 033e bd5a b53d 44e5 cfbd 061c e5bd
000002b0: bca5 b13d 5d29 b73e a5ea 933e fab6 0bbd
000002c0: c081 183e b462 45be 3c25 25be 4f22 4fbe
000002d0: 18e8 87bd 3915 0f3d fc08 f03c bcb2 b43e
000002e0: b829 2dbd 3ad4 47bb 795f 68bd c47d 89bd
000002f0: 36f0 bf3d b461 3dbd 1e8d 38bd a181 c4bd
00000300: f8af 2abe a85c 1fbe 5cd8 b5be c507 febd
00000310: 75bc 30bd 29d6 96bc 8373 363e 201f 353d
00000320: ba6c 8e3e 001a 753d 036a a439 5e1a 183e
00000330: a778 a3be a92d 763e b64b b03e 51a0 8b3d
00000340: f9f2 71bd 0389 82bd b1e5 2f3e dcb3 773e
00000350: 9d36 f43d d328 323e a748 163e b646 c33e
00000360: 0d46 713d 01ea 3b3e 4ab7 d2bd 5ecc 23be
00000370: 3697 48be c669 08be 8b05 943e 8ce3 76bc
00000380: 5c7a 4b3e 3833 2fbe 6168 10be bff8 cc3d
00000390: e9d3 88be e673 d0bd ee35 c3bb c96c 933c
000003a0: 84a7 1bbe 7589 623b 0de2 6fbd ca91 9fbc
000003b0: 9a9b 503e 5f9c c43d a6e3 0cbd 0190 6fbd
000003c0: e5d1 1d3e 59dd 953d e741 81be aa07 edbd
000003d0: bf6c 413d 75d2 3cbd 6abe ab3d 82b3 efbc
000003e0: 9ebc 0e3e 5503 bd3d 3cf1 d33e c41a 693e
000003f0: 0ffb 673d 4b4a 84be a90f babb 9fa2 ee3c

classifier.1.bias f4 [10]
0.22995089 -0.0614654 0.3639047 0.17192112 -0.53298235 -0.42409343 -0.10685141 0.14967874
0.25392717 -0.080819264
00000000: 3f78 6b3e 25c3 7bbd b851 ba3e 170c 303e
00000010: 8871 08bf c622 d9be e9d4 dabd 6245 193e
00000020: be02 823e 9284 a5bd
